name: "LeNet"
layer {
  name: "data"
  type: "Input"
  top: "data"
  input_param { shape: { dim: 1 dim: 1 dim: 28 dim: 28 data_type_size: 4 } }
}
layer {
  name: "conv1"
  type: "Convolution"
  bottom: "data"
  top: "conv1"
  convolution_param {
    num_output: 20
    kernel_size: 5
    stride: 1
  }
}
layer {
  name: "pool1"
  type: "Pooling"
  bottom: "conv1"
  top: "pool1"
  pooling_param {
    pool: MAX
    kernel_size: 2
    stride: 2
  }
}
layer {
  name: "conv2"
  type: "Convolution"
  bottom: "pool1"
  top: "conv2"
  convolution_param {
    num_output: 50
    kernel_size: 5
    stride: 1
  }
}
layer {
  name: "customized",
  type: "ELU",
  bottom: "conv2",
  top: "elu1",
  custom {
    value: "{alpha: 0.1}"
  }
}
layer {
  name: "customized1",
  type: "ELU",
  bottom: "elu1",
  top: "elu2",
  custom {
    value: "{alpha: 0.1}"
  }
}
layer {
  name: "pool2"
  type: "Pooling"
  bottom: "elu2"
  top: "pool2"
  pooling_param {
    pool: MAX
    kernel_size: 2
    stride: 2
  }
}
layer {
  name: "ip1"
  type: "InnerProduct"
  bottom: "pool2"
  top: "ip1"
  inner_product_param {
    num_output: 500
  }
}
layer {
  name: "relu1"
  type: "ReLU"
  bottom: "ip1"
  top: "ip1"
}
layer {
  name: "ip2"
  type: "InnerProduct"
  bottom: "ip1"
  top: "ip2"
  inner_product_param {
    num_output: 10
  }
}
layer {
  name: "customized2",
  type: "ELU",
  bottom: "ip2",
  top: "elu3",
  custom {
    value: "{alpha: 0.1}"
  }
}
